Finn_outputs/LPYOLO/output/verification_output/verify_folded_hls_cppsim_0_SUCCESS/GenericPartition_0_MultiThreshold_7_param0.npy (npy, 1696 bytes, 1 tensors)

array f4 [56, 7]
00000000: 00c0 32c4 0000 b5c3 0000 10c1 0080 ac43
00000010: 0080 2e44 0060 8344 0080 af44 00c0 87c4
00000020: 00c0 2cc4 0080 93c3 0000 c842 0000 f843
00000030: 00c0 5e44 00c0 a044 0000 00c1 0000 9443
00000040: 0000 1644 00c0 6144 00e0 9644 00e0 bc44
00000050: 00e0 e244 0000 acc2 0000 3c43 0080 e643
00000060: 00c0 3744 0000 7c44 0040 a044 0060 c244
00000070: 0000 b6c4 0080 73c4 0000 f6c3 0000 30c1
00000080: 0080 eb43 0000 6e44 0040 b344 0000 1943
00000090: 0080 eb43 0040 4544 0080 8a44 0040 b244
000000a0: 0000 da44 00e0 0045 0000 f6c2 0000 ac42
000000b0: 0080 9343 0000 fc43 0040 3244 0080 6644
000000c0: 0060 8d44 00c0 d644 00f0 0245 0090 1a45
000000d0: 0020 3245 00c0 4945 0050 6145 00f0 7845
000000e0: 0000 e2c2 0000 0a43 0000 c243 00c0 1f44
000000f0: 0080 5e44 0080 8e44 00e0 ad44 0040 2ac4
00000100: 0000 8bc3 0000 f842 00c0 0344 0080 6844
00000110: 0080 a644 00e0 d844 0000 74c2 0000 a642
00000120: 0000 6243 0080 b843 0040 0044 0000 2444
00000130: 00c0 4744 0000 7543 0080 1f44 0000 8144
00000140: 0040 b244 0060 e344 0050 0a45 00e0 2245
00000150: 0000 dbc3 0000 86c2 0000 9843 00c0 2844
00000160: 00c0 8244 0020 b144 0080 df44 0080 5ec4
00000170: 0080 17c4 0000 a1c3 0000 1cc2 0000 7543
00000180: 0040 0444 0000 4b44 0000 cc42 0080 bf43
00000190: 0000 2644 0080 6c44 0060 9944 0080 bc44
000001a0: 00a0 df44 00c0 c0c4 00e0 8fc4 0040 3ec4
000001b0: 0080 b9c3 0000 a041 0000 cd43 0040 4844
000001c0: 0000 8442 0080 ee43 00c0 5d44 0020 a244
000001d0: 0080 d544 0060 0445 0010 1e45 0000 9cc2
000001e0: 0000 9543 0040 2844 0000 8344 00e0 b144
000001f0: 00c0 e044 00e0 0745 0000 20c2 0000 c543
00000200: 00c0 4e44 00a0 9d44 00e0 d344 0010 0545
00000210: 0020 2045 0000 26c3 0000 f841 0000 6543
00000220: 0000 d543 0000 1c44 0080 4d44 00c0 7e44
00000230: 0000 aec2 0080 8d43 0080 2344 0000 8044
00000240: 0040 ae44 0080 dc44 0060 0545 0000 a3c4
00000250: 00c0 67c4 0080 09c4 0000 2dc3 0000 4c43
00000260: 0040 1144 0080 6f44 0040 11c4 0000 46c3
00000270: 0000 3943 0000 0e44 00c0 6d44 00c0 a644
00000280: 00a0 d644 0000 f841 0000 4443 0080 b443
00000290: 0080 0344 0000 2d44 0040 5644 0080 7f44
000002a0: 0040 15c4 0080 a5c3 0000 80c2 0000 4a43
000002b0: 0000 ea43 00c0 3744 0040 7a44 0040 22c4
000002c0: 0080 e5c3 0080 86c3 0000 9ec2 0000 dc42
000002d0: 0000 9643 0000 f543 0000 61c3 0000 c0c0
000002e0: 0000 5443 0080 d743 0040 2244 0000 5944
000002f0: 00c0 8744 0000 1ac3 0000 3c42 0000 7843
00000300: 0000 e143 00c0 2244 0040 5544 00c0 8344
00000310: 0000 8543 0040 1b44 0000 7444 0060 a644
00000320: 00c0 d244 0020 ff44 00c0 1545 0000 7cc3
00000330: 0000 a841 0080 9343 0000 0e44 0040 5244
00000340: 0060 8b44 0080 ad44 0080 81c3 0000 b042
00000350: 0080 d943 00c0 4344 0040 8d44 00c0 b844
00000360: 0020 e444 0080 e4c3 0000 4ac3 0000 5842
00000370: 0080 9a43 0000 0d44 00c0 4c44 0060 8644
00000380: 0000 93c4 0040 55c4 0080 04c4 0000 4fc3
00000390: 0000 e842 0080 db43 0080 3e44 0080 25c4
000003a0: 0000 b6c3 0000 82c2 0000 6943 0000 0544
000003b0: 0080 4f44 0020 8d44 0000 eec2 0080 8943
000003c0: 0000 2744 00c0 8444 00e0 b544 0020 e744
000003d0: 0020 0c45 0000 6cc3 0000 c042 0080 d543
000003e0: 0080 3d44 0040 8844 00a0 b144 0000 db44
000003f0: 0000 5b43 00c0 0044 00c0 4a44 0060 8a44
-715.0 -362.0 -9.0 345.0 698.0 1051.0 1404.0 -1086.0
-691.0 -295.0 100.0 496.0 891.0 1286.0 -8.0 296.0
600.0 903.0 1207.0 1511.0 1815.0 -86.0 188.0 461.0
735.0 1008.0 1282.0 1555.0 -1456.0 -974.0 -492.0 -11.0
471.0 952.0 1434.0 153.0 471.0 789.0 1108.0 1426.0
1744.0 2062.0 -123.0 86.0 295.0 504.0 713.0 922.0
1131.0 1718.0 2095.0 2473.0 2850.0 3228.0 3605.0 3983.0
-113.0 138.0 388.0 639.0 890.0 1140.0 1391.0 -681.0
-278.0 124.0 527.0 930.0 1332.0 1735.0 -61.0 83.0
226.0 369.0 513.0 656.0 799.0 245.0 638.0 1032.0
1426.0 1819.0 2213.0 2606.0 -438.0 -67.0 304.0 675.0
1046.0 1417.0 1788.0 -890.0 -606.0 -322.0 -39.0 245.0
529.0 812.0 102.0 383.0 664.0 946.0 1227.0 1508.0
1789.0 -1542.0 -1151.0 -761.0 -371.0 20.0 410.0 801.0
66.0 477.0 887.0 1297.0 1708.0 2118.0 2529.0 -78.0
298.0 673.0 1048.0 1423.0 1798.0 2174.0 -40.0 394.0
827.0 1261.0 1695.0 2129.0 2562.0 -166.0 31.0 229.0
426.0 624.0 822.0 1019.0 -87.0 283.0 654.0 1024.0
1394.0 1764.0 2134.0 -1304.0 -927.0 -550.0 -173.0 204.0
581.0 958.0 -581.0 -198.0 185.0 568.0 951.0 1334.0
1717.0 31.0 196.0 361.0 526.0 692.0 857.0 1022.0
-597.0 -331.0 -64.0 202.0 468.0 735.0 1001.0 -649.0
-459.0 -269.0 -79.0 110.0 300.0 490.0 -225.0 -6.0
212.0 431.0 649.0 868.0 1086.0 -154.0 47.0 248.0
450.0 651.0 853.0 1054.0 266.0 621.0 976.0 1331.0
1686.0 2041.0 2396.0 -252.0 21.0 295.0 568.0 841.0
1115.0 1388.0 -259.0 88.0 435.0 783.0 1130.0 1478.0
1825.0 -457.0 -202.0 54.0 309.0 564.0 819.0 1075.0
-1176.0 -853.0 -530.0 -207.0 116.0 439.0 762.0 -662.0
-364.0 -65.0 233.0 532.0 830.0 1129.0 -119.0 275.0
668.0 1062.0 1455.0 1849.0 2242.0 -236.0 96.0 427.0
758.0 1090.0 1421.0 1752.0 219.0 515.0 811.0 1107.0
