Finn_outputs/LPYOLO/output/verification_output/verify_folded_hls_cppsim_0_SUCCESS/GenericPartition_0_MultiThreshold_2_param0.npy (npy, 576 bytes, 1 tensors)

array f4 [16, 7]
281.0 462.0 643.0 823.0 1004.0 1185.0 1365.0 -7.0
275.0 557.0 839.0 1121.0 1403.0 1686.0 225.0 548.0
871.0 1194.0 1517.0 1840.0 2163.0 230.0 491.0 753.0
1014.0 1276.0 1537.0 1798.0 -578.0 -339.0 -100.0 140.0
379.0 618.0 857.0 505.0 813.0 1121.0 1429.0 1736.0
2044.0 2352.0 -1609.0 -1305.0 -1001.0 -697.0 -393.0 -89.0
215.0 -633.0 -368.0 -103.0 162.0 427.0 692.0 957.0
455.0 795.0 1134.0 1473.0 1812.0 2152.0 2491.0 -1289.0
-1080.0 -871.0 -662.0 -454.0 -245.0 -36.0 381.0 670.0
959.0 1248.0 1537.0 1826.0 2115.0 486.0 755.0 1025.0
1295.0 1564.0 1834.0 2104.0 -272.0 -12.0 248.0 508.0
768.0 1028.0 1288.0 -499.0 -292.0 -85.0 122.0 329.0
536.0 743.0 1268.0 1716.0 2164.0 2612.0 3060.0 3508.0
3956.0 -740.0 -421.0 -103.0 215.0 533.0 851.0 1170.0
00000000: 0080 8c43 0000 e743 00c0 2044 00c0 4d44
00000010: 0000 7b44 0020 9444 00a0 aa44 0000 e0c0
00000020: 0080 8943 0040 0b44 00c0 5144 0020 8c44
00000030: 0060 af44 00c0 d244 0000 6143 0000 0944
00000040: 00c0 5944 0040 9544 00a0 bd44 0000 e644
00000050: 0030 0745 0000 6643 0080 f543 0040 3c44
00000060: 0080 7d44 0080 9f44 0020 c044 00c0 e044
00000070: 0080 10c4 0080 a9c3 0000 c8c2 0000 0c43
00000080: 0080 bd43 0080 1a44 0040 5644 0080 fc43
00000090: 0040 4b44 0020 8c44 00a0 b244 0000 d944
000000a0: 0080 ff44 0000 1345 0020 c9c4 0020 a3c4
000000b0: 0040 7ac4 0040 2ec4 0080 c4c3 0000 b2c2
000000c0: 0000 5743 0040 1ec4 0000 b8c3 0000 cec2
000000d0: 0000 2243 0080 d543 0000 2d44 0040 6f44
000000e0: 0080 e343 00c0 4644 00c0 8d44 0020 b844
000000f0: 0080 e244 0080 0645 00b0 1b45 0020 a1c4
00000100: 0000 87c4 00c0 59c4 0080 25c4 0000 e3c3
00000110: 0000 75c3 0000 10c2 0080 be43 0080 2744
00000120: 00c0 6f44 0000 9c44 0020 c044 0040 e444
00000130: 0030 0445 0000 f343 00c0 3c44 0020 8044
00000140: 00e0 a144 0080 c344 0040 e544 0080 0345
00000150: 0000 88c3 0000 40c1 0000 7843 0000 fe43
00000160: 0000 4044 0080 8044 0000 a144 0080 f9c3
00000170: 0000 92c3 0000 aac2 0000 f442 0080 a443
00000180: 0000 0644 00c0 3944 0080 9e44 0080 d644
00000190: 0040 0745 0040 2345 0040 3f45 0040 5b45
000001a0: 0040 7745 0000 39c4 0080 d2c3 0000 cec2
000001b0: 0000 5743 0040 0544 00c0 5444 0040 9244
