Finn_outputs/LPYOLO/output/verification_output/verify_folded_hls_cppsim_0_SUCCESS/GenericPartition_0_MultiThreshold_9_param0.npy (npy, 18416 bytes, 1 tensors)

array f4 [18, 254]
-1058.0 -1050.0 -1042.0 -1033.0 -1025.0 -1017.0 -1008.0 -1000.0
-991.0 -983.0 -975.0 -966.0 -958.0 -950.0 -941.0 -933.0
-924.0 -916.0 -908.0 -899.0 -891.0 -883.0 -874.0 -866.0
-857.0 -849.0 -841.0 -832.0 -824.0 -816.0 -807.0 -799.0
-791.0 -782.0 -774.0 -765.0 -757.0 -749.0 -740.0 -732.0
-724.0 -715.0 -707.0 -698.0 -690.0 -682.0 -673.0 -665.0
-657.0 -648.0 -640.0 -631.0 -623.0 -615.0 -606.0 -598.0
-590.0 -581.0 -573.0 -565.0 -556.0 -548.0 -539.0 -531.0
-523.0 -514.0 -506.0 -498.0 -489.0 -481.0 -472.0 -464.0
-456.0 -447.0 -439.0 -431.0 -422.0 -414.0 -405.0 -397.0
-389.0 -380.0 -372.0 -364.0 -355.0 -347.0 -339.0 -330.0
-322.0 -313.0 -305.0 -297.0 -288.0 -280.0 -272.0 -263.0
-255.0 -246.0 -238.0 -230.0 -221.0 -213.0 -205.0 -196.0
-188.0 -179.0 -171.0 -163.0 -154.0 -146.0 -138.0 -129.0
-121.0 -113.0 -104.0 -96.0 -87.0 -79.0 -71.0 -62.0
-54.0 -46.0 -37.0 -29.0 -20.0 -12.0 -4.0 5.0
13.0 21.0 30.0 38.0 47.0 55.0 63.0 72.0
80.0 88.0 97.0 105.0 114.0 122.0 130.0 139.0
147.0 155.0 164.0 172.0 180.0 189.0 197.0 206.0
214.0 222.0 231.0 239.0 247.0 256.0 264.0 273.0
281.0 289.0 298.0 306.0 314.0 323.0 331.0 340.0
348.0 356.0 365.0 373.0 381.0 390.0 398.0 406.0
415.0 423.0 432.0 440.0 448.0 457.0 465.0 473.0
482.0 490.0 499.0 507.0 515.0 524.0 532.0 540.0
549.0 557.0 566.0 574.0 582.0 591.0 599.0 607.0
616.0 624.0 632.0 641.0 649.0 658.0 666.0 674.0
683.0 691.0 699.0 708.0 716.0 725.0 733.0 741.0
750.0 758.0 766.0 775.0 783.0 792.0 800.0 808.0
817.0 825.0 833.0 842.0 850.0 858.0 867.0 875.0
884.0 892.0 900.0 909.0 917.0 925.0 934.0 942.0
951.0 959.0 967.0 976.0 984.0 992.0 1001.0 1009.0
1018.0 1026.0 1034.0 1043.0 1051.0 1059.0 -1221.0 -1211.0
00000000: 0040 84c4 0040 83c4 0040 82c4 0020 81c4
00000010: 0020 80c4 0040 7ec4 0000 7cc4 0000 7ac4
00000020: 00c0 77c4 00c0 75c4 00c0 73c4 0080 71c4
00000030: 0080 6fc4 0080 6dc4 0040 6bc4 0040 69c4
00000040: 0000 67c4 0000 65c4 0000 63c4 00c0 60c4
00000050: 00c0 5ec4 00c0 5cc4 0080 5ac4 0080 58c4
00000060: 0040 56c4 0040 54c4 0040 52c4 0000 50c4
00000070: 0000 4ec4 0000 4cc4 00c0 49c4 00c0 47c4
00000080: 00c0 45c4 0080 43c4 0080 41c4 0040 3fc4
00000090: 0040 3dc4 0040 3bc4 0000 39c4 0000 37c4
000000a0: 0000 35c4 00c0 32c4 00c0 30c4 0080 2ec4
000000b0: 0080 2cc4 0080 2ac4 0040 28c4 0040 26c4
000000c0: 0040 24c4 0000 22c4 0000 20c4 00c0 1dc4
000000d0: 00c0 1bc4 00c0 19c4 0080 17c4 0080 15c4
000000e0: 0080 13c4 0040 11c4 0040 0fc4 0040 0dc4
000000f0: 0000 0bc4 0000 09c4 00c0 06c4 00c0 04c4
00000100: 00c0 02c4 0080 00c4 0000 fdc3 0000 f9c3
00000110: 0080 f4c3 0080 f0c3 0000 ecc3 0000 e8c3
00000120: 0000 e4c3 0080 dfc3 0080 dbc3 0080 d7c3
00000130: 0000 d3c3 0000 cfc3 0080 cac3 0080 c6c3
00000140: 0080 c2c3 0000 bec3 0000 bac3 0000 b6c3
00000150: 0080 b1c3 0080 adc3 0080 a9c3 0000 a5c3
00000160: 0000 a1c3 0080 9cc3 0080 98c3 0080 94c3
00000170: 0000 90c3 0000 8cc3 0000 88c3 0080 83c3
00000180: 0000 7fc3 0000 76c3 0000 6ec3 0000 66c3
00000190: 0000 5dc3 0000 55c3 0000 4dc3 0000 44c3
000001a0: 0000 3cc3 0000 33c3 0000 2bc3 0000 23c3
000001b0: 0000 1ac3 0000 12c3 0000 0ac3 0000 01c3
000001c0: 0000 f2c2 0000 e2c2 0000 d0c2 0000 c0c2
000001d0: 0000 aec2 0000 9ec2 0000 8ec2 0000 78c2
000001e0: 0000 58c2 0000 38c2 0000 14c2 0000 e8c1
000001f0: 0000 a0c1 0000 40c1 0000 80c0 0000 a040
00000200: 0000 5041 0000 a841 0000 f041 0000 1842
00000210: 0000 3c42 0000 5c42 0000 7c42 0000 9042
00000220: 0000 a042 0000 b042 0000 c242 0000 d242
00000230: 0000 e442 0000 f442 0000 0243 0000 0b43
00000240: 0000 1343 0000 1b43 0000 2443 0000 2c43
00000250: 0000 3443 0000 3d43 0000 4543 0000 4e43
00000260: 0000 5643 0000 5e43 0000 6743 0000 6f43
00000270: 0000 7743 0000 8043 0000 8443 0080 8843
00000280: 0080 8c43 0080 9043 0000 9543 0000 9943
00000290: 0000 9d43 0080 a143 0080 a543 0000 aa43
000002a0: 0000 ae43 0000 b243 0080 b643 0080 ba43
000002b0: 0080 be43 0000 c343 0000 c743 0000 cb43
000002c0: 0080 cf43 0080 d343 0000 d843 0000 dc43
000002d0: 0000 e043 0080 e443 0080 e843 0080 ec43
000002e0: 0000 f143 0000 f543 0080 f943 0080 fd43
000002f0: 00c0 0044 0000 0344 0000 0544 0000 0744
00000300: 0040 0944 0040 0b44 0080 0d44 0080 0f44
00000310: 0080 1144 00c0 1344 00c0 1544 00c0 1744
00000320: 0000 1a44 0000 1c44 0000 1e44 0040 2044
00000330: 0040 2244 0080 2444 0080 2644 0080 2844
00000340: 00c0 2a44 00c0 2c44 00c0 2e44 0000 3144
00000350: 0000 3344 0040 3544 0040 3744 0040 3944
00000360: 0080 3b44 0080 3d44 0080 3f44 00c0 4144
00000370: 00c0 4344 0000 4644 0000 4844 0000 4a44
00000380: 0040 4c44 0040 4e44 0040 5044 0080 5244
00000390: 0080 5444 0080 5644 00c0 5844 00c0 5a44
000003a0: 0000 5d44 0000 5f44 0000 6144 0040 6344
000003b0: 0040 6544 0040 6744 0080 6944 0080 6b44
000003c0: 00c0 6d44 00c0 6f44 00c0 7144 0000 7444
000003d0: 0000 7644 0000 7844 0040 7a44 0040 7c44
000003e0: 0080 7e44 0040 8044 0040 8144 0060 8244
000003f0: 0060 8344 0060 8444 00a0 98c4 0060 97c4
