Finn_outputs/LPYOLO/output/verification_output/verify_folded_hls_cppsim_0_SUCCESS/GenericPartition_0_MatMul_0_param0.npy (npy, 992 bytes, 1 tensors)

array f4 [27, 8]
000000 00 00 04 42 00 00 e6 42 00 00 7c 42 00 00 90 c2
       33.0 115.0 63.0 -72.0
000010 00 00 20 41 00 00 30 41 00 00 28 c2 00 00 44 42
       10.0 11.0 -42.0 49.0
000020 00 00 10 c1 00 00 30 c2 00 00 88 41 00 00 c0 c0
       -9.0 -44.0 17.0 -6.0
000030 00 00 c0 c0 00 00 5c 42 00 00 a8 42 00 00 f0 c1
       -6.0 55.0 84.0 -30.0
000040 00 00 88 41 00 00 82 c2 00 00 80 c0 00 00 f8 41
       17.0 -65.0 -4.0 31.0
000050 00 00 e0 c0 00 00 18 42 00 00 00 c0 00 00 a0 41
       -7.0 38.0 -2.0 20.0
000060 00 00 8a 42 00 00 a8 41 00 00 80 41 00 00 10 c2
       69.0 21.0 16.0 -36.0
000070 00 00 40 c1 00 00 3c 42 00 00 9a c2 00 00 b8 42
       -12.0 47.0 -77.0 92.0
000080 00 00 b0 41 00 00 c8 c1 00 00 40 41 00 00 80 c0
       22.0 -25.0 12.0 -4.0
000090 00 00 00 40 00 00 0c 42 00 00 bc 42 00 00 c0 c0
       2.0 35.0 94.0 -6.0
0000a0 00 00 18 42 00 00 00 00 00 00 00 c0 00 00 50 c1
       38.0 0.0 -2.0 -13.0
0000b0 00 00 a8 41 00 00 d8 41 00 00 5c c2 00 00 f0 41
       21.0 27.0 -55.0 30.0
0000c0 00 00 40 42 00 00 00 42 00 00 30 c2 00 00 30 42
       48.0 32.0 -44.0 44.0
0000d0 00 00 b8 41 00 00 a0 41 00 00 a0 40 00 00 e0 42
       23.0 20.0 5.0 112.0
0000e0 00 00 c0 41 00 00 20 c2 00 00 90 41 00 00 e8 41
       24.0 -40.0 18.0 29.0
0000f0 00 00 80 c1 00 00 88 c1 00 00 a4 42 00 00 40 c0
       -16.0 -17.0 82.0 -3.0
000100 00 00 e0 41 00 00 70 c1 00 00 80 3f 00 00 a0 40
       28.0 -15.0 1.0 5.0
000110 00 00 80 c1 00 00 00 c1 00 00 6c c2 00 00 30 42
       -16.0 -8.0 -59.0 44.0
000120 00 00 34 c2 00 00 6c 42 00 00 a6 42 00 00 c2 c2
       -45.0 59.0 83.0 -97.0
000130 00 00 54 42 00 00 ca c2 00 00 4c c2 00 00 80 3f
       53.0 -101.0 -51.0 1.0
000140 00 00 10 c2 00 00 04 c2 00 00 e0 41 00 00 08 c2
       -36.0 -33.0 28.0 -34.0
000150 00 00 24 42 00 00 96 c2 00 00 48 42 00 00 e0 c0
       41.0 -75.0 50.0 -7.0
000160 00 00 40 c0 00 00 60 c1 00 00 40 41 00 00 a8 c1
       -3.0 -14.0 12.0 -21.0
000170 00 00 90 41 00 00 00 c0 00 00 b0 c1 00 00 b0 c1
       18.0 -2.0 -22.0 -22.0
000180 00 00 dc c2 00 00 98 c2 00 00 d8 41 00 00 38 c2
       -110.0 -76.0 27.0 -46.0
000190 00 00 fe c2 00 00 40 c1 00 00 04 c2 00 00 20 42
       -127.0 -12.0 -33.0 40.0
0001a0 00 00 ac c2 00 00 00 c1 00 00 10 41 00 00 60 c1
       -86.0 -8.0 9.0 -14.0
0001b0 00 00 6c c2 00 00 9e c2 00 00 fe 42 00 00 f0 41
       -59.0 -79.0 127.0 30.0
0001c0 00 00 14 c2 00 00 98 42 00 00 20 41 00 00 44 c2
       -37.0 76.0 10.0 -49.0
0001d0 00 00 14 c2 00 00 20 41 00 00 18 c2 00 00 40 41
       -37.0 10.0 -38.0 12.0
0001e0 00 00 fe c2 00 00 c2 c2 00 00 b4 c2 00 00 be 42
       -127.0 -97.0 -90.0 95.0
0001f0 00 00 24 42 00 00 a4 42 00 00 d0 c1 00 00 1c 42
       41.0 82.0 -26.0 39.0
000200 00 00 ae c2 00 00 00 00 00 00 34 c2 00 00 68 42
       -87.0 0.0 -45.0 58.0
000210 00 00 20 42 00 00 86 c2 00 00 cc 42 00 00 e8 41
       40.0 -67.0 102.0 29.0
000220 00 00 5c c2 00 00 c8 42 00 00 f0 c1 00 00 e0 40
       -55.0 100.0 -30.0 7.0
000230 00 00 60 41 00 00 f8 41 00 00 aa c2 00 00 50 41
       14.0 31.0 -85.0 13.0
000240 00 00 10 41 00 00 d8 41 00 00 64 42 00 00 9a c2
       9.0 27.0 57.0 -77.0
000250 00 00 96 42 00 00 00 c0 00 00 28 c2 00 00 aa c2
       75.0 -2.0 -42.0 -85.0
000260 00 00 f0 41 00 00 30 c1 00 00 04 42 00 00 54 c2
       30.0 -11.0 33.0 -53.0
000270 00 00 c0 41 00 00 40 c2 00 00 50 41 00 00 f0 41
       24.0 -48.0 13.0 30.0
000280 00 00 40 c1 00 00 c8 c1 00 00 00 42 00 00 40 c0
       -12.0 -25.0 32.0 -3.0
000290 00 00 10 41 00 00 b8 42 00 00 70 41 00 00 10 c1
       9.0 92.0 15.0 -9.0
0002a0 00 00 54 42 00 00 ec c2 00 00 00 40 00 00 80 3f
       53.0 -118.0 2.0 1.0
0002b0 00 00 fe c2 00 00 80 c0 00 00 9e c2 00 00 f8 c2
       -127.0 -4.0 -79.0 -124.0
0002c0 00 00 58 42 00 00 04 42 00 00 a0 40 00 00 a0 c0
       54.0 33.0 5.0 -5.0
0002d0 00 00 58 c2 00 00 fe c2 00 00 9c 42 00 00 30 c1
       -54.0 -127.0 78.0 -11.0
0002e0 00 00 30 41 00 00 9a 42 00 00 f8 41 00 00 e0 40
       11.0 77.0 31.0 7.0
0002f0 00 00 a0 c1 00 00 58 42 00 00 10 c1 00 00 10 c2
       -20.0 54.0 -9.0 -36.0
000300 00 00 64 42 00 00 fe c2 00 00 fe c2 00 00 fe 42
       57.0 -127.0 -127.0 127.0
000310 00 00 6c 42 00 00 8c 42 00 00 5c c2 00 00 fe c2
       59.0 70.0 -55.0 -127.0
000320 00 00 b6 42 00 00 80 42 00 00 bc c2 00 00 08 42
       91.0 64.0 -94.0 34.0
000330 00 00 04 42 00 00 fe c2 00 00 8e 42 00 00 e0 c1
       33.0 -127.0 71.0 -28.0
000340 00 00 98 41 00 00 e0 42 00 00 28 c2 00 00 1c 42
       19.0 112.0 -42.0 39.0
000350 00 00 98 41 00 00 aa 42 00 00 14 c2 00 00 54 c2
       19.0 85.0 -37.0 -53.0
